neural-network-model/final_weights.pth (torch, 55031 bytes, 7 tensors)

fc1.weight f4 [128, 20]
000000 75 a8 10 bd 5e 26 e9 3e 11 37 e3 bd d7 1b ef bd
       -0.035316903 0.45537084 -0.110944875 -0.11675232
000010 66 53 55 be 59 41 c9 be 31 ef af 3d 9b 56 da bd
       -0.20832595 -0.3930767 0.08590544 -0.1066105
000020 5f c6 d3 3e b3 7a 17 3e 99 d2 b8 3e 06 85 cd be
       0.41362283 0.147929 0.36098173 -0.4014055
000030 18 13 64 3e 9b e6 56 be ba fa 83 3d 92 2a ff 3e
       0.22272909 -0.20986407 0.06444307 0.49837166
000040 40 53 04 be 7b 4b 15 bf 23 bf 3d be 2a 51 f5 bd
       -0.12922382 -0.583183 -0.18529944 -0.119783714
000050 2a 6b 85 3e 6b 51 11 3e 45 87 9f bd dc 09 cb 3d
       0.26058322 0.14191215 -0.077894725 0.0991399
000060 f2 65 cc 3d 71 50 3e 3e ef 16 1c 3e e2 a8 dd 3c
       0.09980382 0.18585373 0.15243123 0.027058069
000070 03 81 d2 be e5 9a 63 3d 2f 05 56 bd 40 f5 72 be
       -0.41114053 0.05556764 -0.052251037 -0.23726368
000080 23 b7 4d be e6 c0 8d be f0 83 49 3f 81 52 8b 3e
       -0.20089392 -0.27686232 0.78716946 0.27211383
000090 13 e4 cf bd 0b b1 c1 3e 79 df b8 be 35 dd cc bd
       -0.101509236 0.37830386 -0.36107996 -0.100031294
0000a0 11 91 e6 3e 6a a5 a7 3d 36 4a 4c 3e 00 e2 4e 3e
       0.45032552 0.08185847 0.19950184 0.202034
0000b0 41 23 10 3f b7 16 28 be 81 39 c6 be 3b 02 0d bd
       0.56303793 -0.16414915 -0.38715747 -0.034425955
0000c0 25 fe fa bd f6 c2 8b be e9 0b 05 3e 53 54 76 3e
       -0.122555055 -0.2729718 0.12992825 0.24055605
0000d0 14 e3 8c be 9a 04 07 be e6 21 cd 3e 17 62 9f be
       -0.27516997 -0.13185349 0.40064925 -0.31129524
0000e0 2e 7a 64 be 64 26 ad bd 14 14 66 3c e1 43 2a 3f
       -0.22312233 -0.08454588 0.014042873 0.66509825
0000f0 b1 c2 fb 3c ce c6 28 3e ce cc 26 be 40 8a 23 3e
       0.030732485 0.16482088 -0.16289064 0.15970707
000100 c6 55 01 bf be 64 01 bf 3d a4 ea be 7f 9a d4 be
       -0.50521505 -0.50544345 -0.4582843 -0.4152412
000110 e6 bd cb 3d cc bc d1 bc ca 6f 73 3d be 81 77 be
       0.0994833 -0.02560272 0.059432782 -0.24170586
000120 84 d7 36 be 7c c1 02 be f7 9e 9b bc 72 c3 1e bf
       -0.1785565 -0.12769121 -0.018996699 -0.62016976
000130 49 bd 89 3d a2 79 09 bf cb 4c 9f 3e 16 c0 1e 3f
       0.067255564 -0.5370122 0.31113276 0.6201185
000140 17 8d 17 be 0f 9b fe bd 95 60 ae 3e 27 98 5a bc
       -0.14799915 -0.12431919 0.3405806 -0.01334194
000150 6f b3 d1 3e 7a 8e 18 bf 78 d6 02 3f 6f 32 ef bd
       0.4095721 -0.595924 0.51108503 -0.11679541
000160 e8 ae 30 be 05 e4 4d 3b b8 e9 f9 3d 03 bf 78 3e
       -0.17254221 0.0031416428 0.122027814 0.24291615
000170 7c 53 d9 be 53 98 03 bf f1 d1 41 3e 58 9a 08 3f
       -0.42446506 -0.51404303 0.18927743 0.5336051
000180 a7 dd c9 3e b7 22 a9 be e0 ee 81 3d b6 97 f5 be
       0.3942692 -0.33034298 0.0634439 -0.4796731
000190 04 22 b2 3e f1 28 95 bc 42 72 25 3e 43 6d 40 3e
       0.34791577 -0.018207999 0.16156867 0.1879168
0001a0 f7 8c 1d 3f 5b 0f a3 be 09 7f e5 3e 99 28 84 3e
       0.6154322 -0.31847653 0.44823483 0.25812224
0001b0 e7 65 66 3e 95 98 40 bd d8 b3 c7 3d f2 0d 35 be
       0.2249981 -0.047020514 0.09751099 -0.17681101
0001c0 db ba 3b bd 83 b5 88 bd 35 d8 8e 3e 1c e0 81 3e
       -0.045832496 -0.066752456 0.27899328 0.25366294
0001d0 f9 2b ac bd e1 25 c4 be 72 ec 70 3d 81 9c 1b bf
       -0.084068246 -0.3831015 0.05881924 -0.6078568
0001e0 26 e1 44 3e 87 23 59 3d b5 ff 8c 3e c5 4c 96 3d
       0.19226512 0.053012397 0.2753884 0.073388614
0001f0 47 6d 8a 3d a7 f5 cd be de 08 a8 bc 35 dd 11 3e
       0.06759124 -0.4022648 -0.02051204 0.1424454
000200 47 56 9d be e8 d5 99 3d db 15 0b be 71 62 0e bd
       -0.30729887 0.075115025 -0.13582556 -0.03476185
000210 9f fd 00 be 7c 79 6d bd 51 4b 21 3e 83 41 f4 3e
       -0.12596749 -0.057977185 0.15751387 0.4770623
000220 21 76 f0 be d1 b0 1e bf ae 6b 3d bf 06 07 dc 3e
       -0.46965125 -0.6198855 -0.7399243 0.42974108
000230 60 d1 bd 3e d7 c9 6d 3e a1 b5 00 bd 1e 2f 2d bc
       0.37073803 0.23221527 -0.031423215 -0.010570316
000240 88 f5 a2 3d 1b 4d 6f be e9 6f bc bd f9 05 b0 bd
       0.079569876 -0.23369257 -0.09201033 -0.08594889
000250 a3 a7 00 be a5 59 ed bd 4e 4f d6 bd 20 95 c3 3d
       -0.12563948 -0.11589364 -0.10464345 0.09549928
000260 b1 d2 0f bf 5b 37 3b be 88 fe dd 3e 46 58 f6 3d
       -0.56180865 -0.18282835 0.43358254 0.120285556
000270 2d 6c 00 bf ec f8 7a bf 9d 34 f9 3e 3a 3e b7 3e
       -0.50165063 -0.98036075 0.48672953 0.35789663
000280 2c 57 60 3d 95 0a f8 3c be f5 da 3d 70 53 5e 3e
       0.054770634 0.030278483 0.10691403 0.21711516
000290 3f 06 59 3e 80 b8 13 bb c1 36 4f be 2e a4 c7 be
       0.21193789 -0.002254039 -0.2023573 -0.38992447
0002a0 9d 28 c3 3d 6e 0d 18 bd b8 35 da bd 4c bc cc be
       0.09529231 -0.037122183 -0.10654777 -0.3998741
0002b0 a2 5b 8b be 7e 26 87 3e ee fb cd 3e 1c 0f 04 3d
       -0.27218348 0.26396555 0.4023127 0.032240972
0002c0 ad 87 4c bf 81 e1 39 bf c4 12 11 3f c5 65 c6 3e
       -0.79894525 -0.72609717 0.5666926 0.3874952
0002d0 45 87 3e 3e e1 8b 87 3d b8 eb 10 bd 85 3e 68 3d
       0.18606289 0.06618477 -0.03538105 0.05670025
0002e0 53 74 57 bc 47 d0 d8 be 92 76 ea 3e 3d f7 84 be
       -0.013150292 -0.42346403 0.45793587 -0.25969878
0002f0 1b 42 bd bd 01 5d a6 3d a1 9b c1 3c 29 6d e3 3c
       -0.09241124 0.08123208 0.02363378 0.027762013
000300 d0 a5 d1 bd 48 e1 c5 3e b0 e1 3f 3e 2d 0b f3 3e
       -0.10236704 0.38648438 0.18738437 0.47469464
000310 83 22 c5 3e 27 5f 0c bf 9e 78 0e bf c3 5e b2 bd
       0.38502893 -0.5483269 -0.556528 -0.087094806
000320 82 39 5e be 5d 48 ae bd 98 54 a5 3c c6 70 9f 3e
       -0.21701625 -0.08509896 0.020181939 0.31140727
000330 c2 d5 3c 3f e9 5a ee 39 eb b6 bc bd 6f 58 59 3c
       0.7376367 0.0004546263 -0.09214576 0.013265713
000340 7c a4 5c be eb 37 81 be 8d 7a 8d 3e ee f5 43 3e
       -0.21547121 -0.25237975 0.2763256 0.19136783
000350 2b 6e 04 bd 14 4d c8 be 27 4d 92 3e 55 0e 3e bf
       -0.032331627 -0.39121306 0.28574488 -0.7424062
000360 f4 b5 26 bf d0 00 b6 3e 00 c2 d5 bc 2c 3c da 3e
       -0.6512139 0.35547495 -0.026093483 0.42624032
000370 44 77 1b 3d 22 1b 72 3e 75 26 e8 bd 46 8a e7 3d
       0.037955537 0.23643163 -0.1133546 0.113056704
000380 0e c8 d9 bc b2 52 39 be 22 e6 ab 3e b4 e6 9f be
       -0.026584651 -0.18097952 0.33574015 -0.312307
000390 82 de 69 3d c0 22 c4 3d bf 9c f5 bd 9b 89 2a be
       0.057096966 0.095769405 -0.119927876 -0.16654055
0003a0 e9 f2 46 bc fb 73 81 bd 69 6f 11 3c 08 6e c5 3e
       -0.012142875 -0.0632095 0.00887666 0.3856051
0003b0 30 8a 3a 3e 6d 83 b3 be 5f ce 60 3e 86 32 ca be
       0.18216777 -0.35061207 0.21953724 -0.3949167
0003c0 a2 ec fb 3e 99 d0 3d 3e 9a c8 93 be d3 07 05 3e
       0.49203974 0.18536605 -0.28863984 0.12991266
0003d0 e2 79 ee 3e 27 0a c3 3d 78 27 3a be 2d 40 0f 3e
       0.46577364 0.09523421 -0.18179119 0.13989325
0003e0 c2 3c 1b bd 9e 38 41 3d 53 0d 40 be ac 39 bb be
       -0.03789974 0.047173135 -0.18755083 -0.36567438
0003f0 ee 63 65 3e 05 5b 67 be 9e 99 0b 3f 81 e1 e9 be
       0.22401401 -0.22593315 0.54531276 -0.45679858

fc1.bias f4 [128]
000000 b3 c7 ca 3e aa db 11 3f da 11 58 3e 74 04 2f 3e
       0.39605483 0.56975806 0.2110056 0.17091542
000010 9b a5 2e 3f f7 35 0c 3f fa a7 6e 3e 72 9b a1 3e
       0.68221444 0.54769844 0.23306265 0.31563908
000020 c3 6e f0 3e 95 51 05 3f 28 a6 1a 3f 4d 53 43 3f
       0.46959504 0.5207761 0.60409784 0.7629898
000030 dc 39 0d 3f c2 d8 34 3f ec d5 36 3f e7 08 97 3e
       0.5516641 0.70643246 0.7142017 0.2949898
000040 8b 3b 2d 3e b2 dd 15 3f 6a 80 00 3f c7 24 11 3f
       0.16917245 0.58541405 0.50195944 0.5669674
000050 7f 5a 39 3f c7 a5 ef 3d dd 87 65 3e 0f ca 97 bd
       0.7240371 0.117015414 0.22415109 -0.074115865
000060 9f 8e 2e 3f d8 88 f7 3e 97 16 20 3f 47 ed 3e 3f
       0.6818637 0.4834659 0.6253447 0.74580806
000070 95 f6 32 3f 1f 17 29 3f 9c e4 d1 3e 21 cd 2a 3f
       0.69907504 0.66050905 0.40994728 0.6671925
000080 0c 0c d7 3e 0f 94 0a 3f 56 28 eb 3e ed d8 a6 3e
       0.4200138 0.5413217 0.4592921 0.32587376
000090 9d 6d 36 3f 69 46 3b 3f 23 b5 7d 3e 1d 5f a4 3c
       0.71261007 0.7315431 0.2477613 0.020064885
0000a0 76 ed 6f 3e ec c0 92 3f b8 d6 4b 3f 2b 02 01 3f
       0.23430428 1.1465125 0.7962451 0.50393933
0000b0 cf d6 d3 3e 0c 25 63 3e 92 67 1f 3f 1e ff 0d 3f
       0.41374823 0.22182101 0.6226741 0.554674
0000c0 f4 db bd 3e 5a f8 c6 3e 6e 2d c1 3e 91 24 d5 3e
       0.37081873 0.38861352 0.37729973 0.4162946
0000d0 50 a2 1a 3f a8 49 30 3f 4b 85 0d 3f 26 9a c4 3e
       0.6040392 0.6886239 0.55281514 0.38398856
0000e0 1e 09 12 3f 9d c5 e1 3e 56 a3 af 3e 52 cd d3 3e
       0.5704516 0.4409608 0.34304303 0.41367584
0000f0 09 63 38 3f dd 60 10 3f 11 6c 39 3f cb 39 b5 3e
       0.72026116 0.563978 0.7243052 0.35395655
000100 a5 2d c5 3e 6f fb bf 3e ff dd 4d 3f 28 16 0c 3f
       0.38511387 0.37496516 0.80416864 0.5472131
000110 96 71 38 3f e7 69 a7 3d f6 36 aa 3e 39 2e a9 3e
       0.7204832 0.08174496 0.33245057 0.33043078
000120 64 a4 11 3f 8c 3c 2c 3f 19 6e 9d 3e 4b 82 00 3f
       0.56891465 0.6727989 0.3074806 0.5019881
000130 12 3b 98 3e aa 1e 23 3f 7f 0f 33 3f cc 46 b2 3e
       0.29732567 0.63718665 0.6994552 0.3481964
000140 10 75 2e 3f e0 3d c9 3e f4 0a 33 3f c7 cb 2e 3f
       0.68147373 0.3930502 0.6993859 0.6827969
000150 e6 e6 26 3f b0 24 65 3e 63 56 4a 3f d3 34 d0 3e
       0.65196073 0.22377276 0.79038066 0.40665302
000160 9b f3 41 3f b5 ce d2 3e db 46 9c 3e 80 db 11 3f
       0.7576234 0.4117333 0.30522808 0.56975555
000170 17 42 0a 3f 51 7b 4b 3f 5f 68 06 3f 54 e9 de 3e
       0.54007095 0.7948504 0.5250301 0.4353739
000180 83 e5 c5 3e 46 f7 61 3f 60 e3 0f 3f b4 6c 33 3f
       0.38651666 0.88267934 0.5620632 0.7008774
000190 87 a3 61 3f fc ff 6b 3e ea f9 a3 3e c6 cb d0 3e
       0.8814015 0.23046869 0.32026607 0.40780467
0001a0 f8 20 90 3e df a7 2f 3f 75 82 8d 3e 94 e1 31 3f
       0.28150153 0.68615526 0.27638593 0.6948483
0001b0 da 25 d6 3e 81 41 5a 3f 8b a6 10 3f 59 44 21 3f
       0.41825753 0.852562 0.56504124 0.62994915
0001c0 1f 4b a9 3e 80 4d b7 3e 4b c7 41 3f ee 6c cc 3e
       0.33065125 0.35801315 0.7569472 0.39926857
0001d0 2b 30 59 3e 38 32 ff 3e d9 6d 28 3f ff ed 0d 3f
       0.21209781 0.49843 0.65792614 0.5544128
0001e0 0e 45 dc 3e 53 31 1e 3f a7 30 02 3f dc f6 96 3e
       0.43021435 0.6179401 0.5085549 0.29485214
0001f0 82 44 9e 3e 01 01 23 3f 89 03 19 3f de 40 52 3f
       0.30911642 0.63673407 0.5977102 0.8213023

fc2.weight f4 [64, 128]
000000 2b dc a2 3e fe 59 89 3e ef ce 95 3e 0e eb a4 3e
       0.318086 0.2682647 0.2925944 0.32210582
000010 6e e6 00 3f 2f 2c 92 3e b3 41 d4 3e 33 29 93 3e
       0.5035161 0.28549334 0.41456375 0.2874237
000020 b9 f2 f4 3e 31 5e 01 3e 55 19 be 3e b0 09 19 3e
       0.47841433 0.12633587 0.37128702 0.14945102
000030 d7 d9 8a 3e 48 d0 a1 3e 7b 97 f1 3e d4 63 bd 3e
       0.27119324 0.31604218 0.47185883 0.36990225
000040 f0 51 79 3e 62 b8 9e 3e 76 8f b0 3e 2f d2 49 3e
       0.24347663 0.31000048 0.34484452 0.19709085
000050 76 86 ff 3e 2c 2c 8c 3e 58 82 87 3e e1 70 eb 3d
       0.49907273 0.2737745 0.26466632 0.11496139
000060 bd c4 df 3e 2b 24 34 3e 09 e8 79 3e c3 3b 96 3e
       0.43704787 0.17591922 0.2440492 0.2934247
000070 ec 75 b3 3e 42 fd c9 3e c5 15 54 3e 8e 1b 82 3e
       0.35050905 0.39451033 0.2071143 0.25411648
000080 ca e5 87 3e bf 48 f4 3e ac 1d a8 3e 6d c8 a2 3e
       0.26542503 0.4771175 0.32835138 0.31793538
000090 5a 39 9c 3e f0 2c d1 3e 14 8b 59 3e 1a a0 73 3e
       0.30512506 0.40854597 0.2124446 0.23791543
0000a0 4c d9 11 3f 3a 42 0a 3f 67 94 91 3e 33 b3 8c 3e
       0.56972194 0.54007304 0.28433535 0.27480468
0000b0 f2 b3 96 3e 12 a3 6c 3e d1 60 37 3e a9 7c 21 3e
       0.29434162 0.23109081 0.17908026 0.1577021
0000c0 21 87 85 3e 1d 2a d1 3e cb c2 d0 3e 21 fd 88 3e
       0.26079658 0.40852442 0.40773615 0.26755622
0000d0 3c 7e 9e 3e d9 0c 86 3e 29 d7 91 3e 4b e4 90 3e
       0.30955684 0.26181677 0.28484467 0.28299174
0000e0 e6 67 c3 3d f0 5e d6 3e d1 57 5b 3d f3 fc 61 3e
       0.095413014 0.41869307 0.053550545 0.22069149
0000f0 8f 92 97 3e 3c da 4f 3e f4 24 e6 3e ed 23 06 3f
       0.29604003 0.20298094 0.44950068 0.5239857
000100 01 98 05 3f 74 25 5c 3e 03 e4 a0 3e ba bf 80 3e
       0.52185065 0.21498662 0.3142396 0.25146276
000110 64 cd 65 3e 69 1b e4 3e 4b 0a f1 3d bf c7 04 3e
       0.22441632 0.44552162 0.11769541 0.12966822
000120 57 16 43 3e 9a 82 b9 3e 01 a3 a0 3e ec 69 82 3e
       0.1905149 0.36232454 0.31374362 0.25471437
000130 48 39 de 3e c1 96 8d 3e 15 e6 c9 3e bc 43 c2 3e
       0.43403077 0.2765408 0.3943335 0.37942302
000140 42 eb a2 3e f6 49 48 3e a6 b1 62 3e 4a bd cc 3e
       0.31820112 0.19559464 0.2213808 0.39988166
000150 e7 24 c1 3e 78 81 25 3e 52 96 87 3e c9 65 62 3e
       0.37723467 0.1616267 0.26481873 0.2210914
000160 11 4c af 3e f8 00 2f 3e f9 4d 73 3e 5c f9 e0 3e
       0.34237722 0.17090213 0.23760213 0.43940246
000170 f9 33 5a 3e e1 87 b0 3e d0 b1 fa 3d 0a a4 a0 3e
       0.21308888 0.34478667 0.12240946 0.31375152
000180 10 2d c5 3e 0e ed ea 3e e6 77 af 3e 1e e9 bf 3e
       0.38510942 0.45883983 0.34271163 0.37482542
000190 d6 1e aa 3e be 4d ad 3e 90 09 bc 3e 59 64 e4 3e
       0.3322665 0.33848375 0.36726046 0.4460781
0001a0 61 3f 84 3e 17 fe 4b 3e 31 82 8b 3e 45 b3 f4 3e
       0.25829604 0.19921146 0.27247766 0.47793022
0001b0 fe f1 b0 3e c2 4a 90 3e 72 cc 83 3e cf 83 c0 3e
       0.34559625 0.28182036 0.25741917 0.37600562
0001c0 57 2d a2 3e b5 1c 90 3e 49 fa ed 3e 49 5d c0 3e
       0.31675217 0.28146902 0.46480015 0.3757117
0001d0 79 b1 d4 3e 5b 3b b0 3e e6 28 cf 3e f7 84 97 3e
       0.4154165 0.34420285 0.4046089 0.29593632
0001e0 cb c1 3c 3e 1a a9 95 3e ed 5a 98 3e f6 8a 66 3e
       0.18433301 0.29230577 0.2975687 0.22513947
0001f0 6d 77 86 3e 91 d6 e0 3e 2c f5 f4 3e bb 8a b2 3e
       0.2626299 0.439137 0.478433 0.34871468
000200 05 2b e1 3c 3f 9d 16 3d 26 37 38 3d 2c 14 f1 3c
       0.027486334 0.036771055 0.04497447 0.029428564
000210 77 de 72 bd e4 c7 38 3d 70 ad 8c 3c fb bf cd 3c
       -0.05929419 0.045112506 0.017172545 0.025115957
000220 77 08 cb bd fc f2 2c bd c4 e9 a3 bd 6d 3d d9 bc
       -0.09913724 -0.042223915 -0.08003572 -0.026518548
000230 bb 1b 89 3d 11 08 60 bd 87 32 90 3c 1f 02 61 bd
       0.06694742 -0.054695193 0.017602218 -0.054933663
000240 bc 75 a1 bd 49 3e 13 bd 8a 90 80 3d 1e 12 8f 3d
       -0.07883784 -0.03594807 0.06277569 0.069858775
000250 21 63 2a bd 06 6b a0 bc 37 10 11 3d 8d 2f db bd
       -0.041598443 -0.019582283 0.035415854 -0.10702429
000260 7a d0 80 bd 89 f8 87 3c d9 78 37 bc d7 c5 6f bd
       -0.06289764 0.016598003 -0.011198246 -0.058538284
000270 61 23 79 3d b1 e6 95 3d ac 5e 48 bd 8f fd b2 39
       0.060824756 0.073193915 -0.04891841 0.00034139722
000280 31 6b 21 3d f5 7d b5 bd 66 8f a3 bc 66 d1 ba bd
       0.039408866 -0.08861915 -0.019965839 -0.09121971
000290 d6 88 00 bd e0 5e 98 bd c8 d0 83 bd 13 be cc bd
       -0.031380497 -0.07439971 -0.06436306 -0.09997191
0002a0 fd 27 b6 bb 64 9c a3 3b 19 5d 10 3c 1c 01 d5 3c
       -0.005558966 0.0049930084 0.008811259 0.026001506
0002b0 f8 70 67 3d 94 60 b2 bd d8 00 f3 3c f8 d7 a7 bc
       0.05650422 -0.08709827 0.029663488 -0.020488724
0002c0 57 d6 e8 3c 40 3f 4e bd b8 ee 0b 3d 92 7c 55 3d
       0.028422518 -0.05035329 0.034163207 0.052120753
0002d0 ea 4b 65 bd 1c 54 50 3c 0f 90 56 bd 35 f4 b0 bd
       -0.0559806 0.012715366 -0.05238348 -0.08640329
0002e0 10 f5 5b bd 1e b9 da 3c f6 96 6b 3d 84 9a 19 bd
       -0.053700507 0.026699599 0.057517014 -0.037500873
0002f0 fb 7a 2d bc 9f 4a 0b 3d 52 b5 af bd ff 58 d8 3a
       -0.010588403 0.03400671 -0.08579506 0.0016506015
000300 38 6c 96 bd 8a 3a 11 3d 86 5f 85 3a e5 5b b2 bc
       -0.0734486 0.035456218 0.0010175563 -0.021772334
000310 54 f3 1e bb 32 33 3a 3d e5 92 23 3a 82 19 15 3d
       -0.0024253922 0.04545898 0.00062398455 0.03640128
000320 8e 5e 51 bc 31 df 0e 3c d4 43 f0 3b d4 b8 51 3d
       -0.012778891 0.008720205 0.0073323045 0.051201656
000330 78 fe 11 bd 3a 62 37 bc 81 7b f4 3c df cc d2 3c
       -0.03564307 -0.011192853 0.029844048 0.025732456
000340 ae 29 23 3d 5e 4f 0d 3b d3 b1 45 bd 8f 1e 20 bd
       0.03983467 0.00215622 -0.04826529 -0.039091643
000350 dc 8f ec 3c 2b d6 99 bd 2f 28 90 bc da 33 90 b8
       0.028877191 -0.075115524 -0.017597286 -6.876113e-05
000360 61 67 03 bb 14 df ca 3c 6b ff 96 bc 2c 98 33 3d
       -0.0020050632 0.024764575 -0.01843234 0.043846294
000370 86 4c ad bd c4 8c 6e bd 4c e9 a2 bd 6c cb 41 3d
       -0.08461861 -0.058239713 -0.07954654 0.04731314
000380 1c 31 11 3c c8 73 23 3b 3c 41 11 bd 0b 30 c5 bd
       0.008861806 0.0024940837 -0.035462603 -0.09628304
000390 56 aa b5 3c 5a 62 5a 3d 13 42 0b 3c 5c a0 eb bc
       0.022175949 0.05331645 0.00849964 -0.028762989
0003a0 00 73 43 3d 40 77 84 bc 0f ac c8 bc 10 9c a7 bd
       0.047717094 -0.016170144 -0.024496106 -0.081840634
0003b0 cf e1 a6 bd 30 0b 81 bd 8c 50 77 bd cc 5a 80 bc
       -0.08148538 -0.06300962 -0.06037955 -0.015668295
0003c0 cf e0 13 bd e7 69 5e 3c 8a e9 1c 3c b0 83 93 bd
       -0.036103066 0.013575054 0.009577164 -0.07202852
0003d0 74 59 07 bc 5b 05 c3 bd 56 ae 70 3d 07 cf 51 bd
       -0.008261073 -0.09522506 0.05876001 -0.051222827
0003e0 18 21 ad bd 4b 5c e8 bc 95 9a 22 bd c5 03 90 bd
       -0.08453578 -0.028364321 -0.039698202 -0.07031969
0003f0 56 c8 c6 bd ef a4 b0 bc cc 4e 22 3d 46 04 b9 3c
       -0.0970618 -0.021563021 0.039625928 0.022585046

fc2.bias f4 [64]
000000 24 b8 29 3f b3 b1 67 bd 6a 17 2e 3f 9d 83 06 3f
       0.662966 -0.05656595 0.6800448 0.52544576
000010 d2 cf 0e 3f 61 98 98 3d 3a 53 bb bd 8c 5f 81 3d
       0.5578586 0.07450939 -0.091467336 0.06317052
000020 c0 18 0c 3b b5 1a 24 3f ff e3 0a 3f 43 ce 35 3f
       0.0021377057 0.6410325 0.54254144 0.71017855
000030 6e b3 ce 3e f2 25 16 3f 6d 7d 15 3f 8c 87 1e 3f
       0.4037127 0.5865165 0.5839451 0.6192558
000040 bf a1 1e 3f 01 68 14 3f 4a 39 79 3c d8 5d 1b 3f
       0.61965555 0.579712 0.015211413 0.6069007
000050 c3 7c 9c bd 8e 2c 1d 3f 67 36 0a 3f 8d 11 27 3f
       -0.07640984 0.6139611 0.5398926 0.65261155
000060 3d d1 1e 3f b1 75 e1 bc be 98 18 3f dd 4b 2f 3f
       0.6203802 -0.02752194 0.59608066 0.68475133
000070 58 6f 1e 38 d9 7e 12 3f 38 6b 1f 3f 1b 01 04 3f
       3.7773832e-05 0.57224804 0.6227298 0.51564187
000080 c8 c5 0c 3f ad 92 4b 3e 50 1b 13 3f 7e b7 d3 bd
       0.5498929 0.19880171 0.5746355 -0.10337733
000090 4c dc 29 3f e8 a7 1e 3f 51 8c 13 3b 2f a2 20 bd
       0.6635177 0.61974955 0.0022514055 -0.03921717
0000a0 30 e7 1b 3f d3 22 25 3f cb d0 0a 3f 3f d2 00 3c
       0.6089964 0.6450626 0.5422484 0.007862627
0000b0 e2 32 17 3f d9 0d 1a 3f 40 46 22 3f 8b e5 7b 3d
       0.59062016 0.6017738 0.63388443 0.061498206
0000c0 24 8c 2a 3f 5c 31 b9 bd 0e 48 2c 3f f2 ac 1d 3f
       0.6662009 -0.09042618 0.67297447 0.6159202
0000d0 41 f9 01 3f 40 7b 1a 3f fe 1e 35 3f 3f 01 27 bd
       0.50770956 0.60344315 0.70750415 -0.040772673
0000e0 78 cb 09 3f 79 8e 2e 3f 9c a8 2f 3f 57 84 c6 bb
       0.53826094 0.68186146 0.6861665 -0.0060582566
0000f0 c8 f2 fb 3e 07 44 2e 3f 78 5d 1f 3f 74 bb 9f 3c
       0.49208665 0.6807255 0.62251997 0.019498564

fc3.weight f4 [32, 64]
000000 56 ce d8 3e 4c 54 18 bd 5b cf a1 3e 06 4d df 3e
       0.42344922 -0.037189767 0.31603512 0.43613452
000010 9e 9d d5 3e 7f c0 4f bd 07 63 b9 bd cd 1e 05 3e
       0.41721815 -0.050720688 -0.09052091 0.13000031
000020 47 5f 95 bb 5a c5 da 3e 9b ea ae 3e 86 b5 7b 3e
       -0.004558477 0.42728692 0.34163365 0.24580964
000030 04 84 7c 3e 5f fc d9 3e 2e 44 a1 3e b6 a8 8d 3e
       0.24659735 0.42575356 0.3149733 0.2766778
000040 b3 fc c7 3e bf 46 e0 3e 2f c6 d0 3c 7e e9 87 3e
       0.39059982 0.43803975 0.025485126 0.26545328
000050 f9 a1 2c bd a8 84 d1 3e de fa 5d 3e 98 a8 dd 3e
       -0.042146657 0.4092152 0.2167773 0.4329269
000060 a7 94 8c 3e 35 f2 e5 3c a4 9c 8f 3e 6e 7f d4 3e
       0.27457163 0.028069595 0.28049195 0.4150347
000070 31 8c 90 3c 59 d9 b9 3e be c0 7f 3e a0 4b a0 3e
       0.017644973 0.36298636 0.24975869 0.31307697
000080 71 70 e9 3e db 25 b8 3d 17 25 bd 3e 7b 8e 7a bd
       0.45593598 0.08991595 0.3694236 -0.061171036
000090 63 9d b6 3e d9 95 e6 3e 5c 49 a2 3d 51 98 93 bd
       0.35666952 0.450362 0.079241484 -0.072067864
0000a0 73 fa cf 3e 46 9e db 3e 88 cb 92 3e 6b dc ec 3d
       0.40620765 0.4289419 0.28670907 0.11565479
0000b0 c2 e1 79 3e b6 67 a5 3e c8 72 dc 3e c7 04 89 3d
       0.24402526 0.32305688 0.4305632 0.06690364
0000c0 48 a5 6d 3e 1a 8f d6 bd 79 0b b7 3e 50 63 a2 3e
       0.23207581 -0.10476513 0.3575094 0.31716394
0000d0 dd f9 8c 3e 8f be 98 3e 2f dc b7 3e 32 61 6f bd
       0.2753438 0.29832885 0.35910174 -0.058442302
0000e0 23 ff b4 3e 17 23 e9 3e fb e1 9c 3e 74 ff f3 3d
       0.35350904 0.45534584 0.3064116 0.11913958
0000f0 cf 7f 5e 3e 87 29 e6 3e d3 34 b1 3e 6e ad 5a bd
       0.21728443 0.44953558 0.34610614 -0.05338805
000100 22 a2 9f bd 4b 97 c4 bc b5 5a 65 bb 00 18 08 bd
       -0.07794596 -0.023997923 -0.0034996693 -0.033226013
000110 96 91 d5 bd f5 27 51 bd 9b 17 cb bd d9 ea d2 3d
       -0.10428159 -0.051063497 -0.09916612 0.102987
000120 62 4e 95 3d 81 5e 49 3d 55 1b 69 3d 3e ab 6c 3d
       0.07290341 0.04916239 0.05691083 0.057780497
000130 11 e4 7e 3b 62 ec f3 bd 46 da c9 bd 40 9b 2e bc
       0.0038893262 -0.11910321 -0.098560855 -0.010657132
000140 e5 cd af 3a 07 d3 c4 bd 9d e3 21 bd 23 2d 57 3c
       0.0013412802 -0.09610563 -0.03952371 0.01313332
000150 f2 4e eb 3c a5 ac 89 3d 09 2d 84 3d 6b 77 0c be
       0.028724167 0.067223825 0.06453902 -0.1371743
000160 e7 89 8c 3d 91 75 9d 3a f4 22 f0 bd 11 2e 8f bd
       0.0686224 0.0012013187 -0.11725417 -0.06991208
000170 12 a2 b8 3d 2a d1 2f 3d e2 c0 5a bc f4 0a e4 b8
       0.090152875 0.042924084 -0.013351651 -0.000108739274
000180 7c 0a a6 3b bf 59 3c 3d 76 8e da bd 7b b5 82 bd
       0.005067168 0.045984026 -0.106717035 -0.06382271
000190 34 e1 e9 bb 62 eb 0a be 5f 01 0c be 98 cc 93 bd
       -0.007137442 -0.13566354 -0.13672398 -0.072167575
0001a0 fe 2f e7 bd 37 94 22 bd cd 71 f1 bd b3 51 a7 3d
       -0.11288451 -0.03969213 -0.11789284 0.0816988
0001b0 05 e9 ff bd 89 88 fe bd b0 e4 c3 bd 9a 5c d8 bd
       -0.12495617 -0.12428386 -0.09565103 -0.10564537
0001c0 99 d0 e8 bc 8f 29 e1 3d 92 cd bb 3d f4 f0 90 3d
       -0.02841978 0.10994255 0.09170069 0.07077208
0001d0 97 1a cb 3c 59 78 7a bd 2d e4 45 bd d4 9a dd bd
       0.024792952 -0.06114993 -0.04831331 -0.10820547
0001e0 19 e2 e1 bc e6 fb c7 3d d5 2e 00 be 88 82 b1 3d
       -0.027573632 0.09764843 -0.12517865 0.08667475
0001f0 a6 8f 7b 3c 09 39 73 3c 39 91 03 be 8c c7 8d bd
       0.015354073 0.014845141 -0.12848367 -0.06922826
000200 0e 77 e9 3e 9c 83 cb bb de 42 c1 3e 40 16 d0 3e
       0.45598644 -0.0062107574 0.37746328 0.40641975
000210 7e 4f 75 3e 84 20 2e bd 96 90 82 bc c6 c4 de bd
       0.23956105 -0.042511478 -0.015938085 -0.10877375
000220 d5 3b 34 bd 35 c3 c4 3e f2 b6 b7 3e 9a 73 bf 3e
       -0.044002373 0.3843018 0.35881764 0.37392884
000230 ba b3 2b 3e 5e f9 d2 3e 10 11 bf 3e 64 77 bf 3e
       0.16767779 0.41205877 0.37317705 0.37395775
000240 09 b4 c2 3e 4e ef 5a 3e d1 f3 5a bd 67 8e e1 3e
       0.3802798 0.2138035 -0.053455178 0.44053957
000250 02 88 33 bd c1 66 c3 3e 14 b5 90 3e 60 71 b1 3e
       -0.04383088 0.38164333 0.28263152 0.3465681
000260 5e 83 83 3e a4 7a ee 3d b2 ec a1 3e 1f 47 8d 3e
       0.25686163 0.116444856 0.31625897 0.27593324
000270 3b 58 84 bd 6e 75 7c 3e 55 c0 cb 3e 7a 95 8c 3e
       -0.06462141 0.24654171 0.39795175 0.27457792
000280 f3 a6 c5 3e 8d 7d 2d 3c fa 3a e9 3e a9 d7 75 3b
       0.38603935 0.010589016 0.45552808 0.0037512577
000290 85 7c d8 3e 38 76 98 3e 47 89 3f 3d e8 16 d3 bc
       0.422825 0.29777694 0.046761777 -0.025767758
0002a0 9e c6 d2 3e 2c 14 b3 3e b1 12 c8 3e 5d 21 4c 3d
       0.41167158 0.34976327 0.3907676 0.049836505
0002b0 29 6b 87 3e 6b e7 8a 3e 7c d0 8b 3e 56 54 a4 bd
       0.26448944 0.27129683 0.27307498 -0.08023898
0002c0 01 16 b1 3e 2b 07 02 3e 98 57 87 3e f8 95 9c 3e
       0.345871 0.12698047 0.26434016 0.30583167
0002d0 12 bc 4b 3e 8e 3a 13 3e 4d 80 9f 3e 95 79 a8 bd
       0.19895962 0.14377806 0.31152573 -0.08226315
0002e0 a8 ca bd 3e 08 18 94 3e 8a 8c ce 3e 3c 44 a6 3d
       0.37068677 0.28924584 0.40341598 0.081184834
0002f0 d3 23 4b 3e eb 43 a6 3e a0 2d c7 3e 23 55 15 3d
       0.19837885 0.32473692 0.38901997 0.036458146
000300 6c e2 32 3d 61 17 06 bd 2b db c9 3d ba 98 b0 bd
       0.043672964 -0.03273714 0.09856256 -0.0862288
000310 38 5b 01 bd 74 d5 c1 3d db 9f 90 bd bc 59 7b bd
       -0.031581134 0.09464541 -0.0706174 -0.061364874
000320 cc 4a e4 3d a2 4d f0 bc 22 66 ec bd 0d ab bb 3d
       0.11147079 -0.029333893 -0.11542918 0.09163485
000330 82 cf 65 3d 44 fb 8a 3c a8 0d 61 bd 22 0f 56 ba
       0.056106098 0.016965516 -0.054944664 -0.0008165707
000340 6c 35 52 3d c9 22 21 3b d7 a5 9c bd 7d ad f5 bd
       0.05132048 0.0024587384 -0.07648819 -0.11995981
000350 48 be 21 3d e4 20 8a 3d 04 97 98 bd 40 04 39 bd
       0.039488107 0.06744555 -0.07450679 -0.04517007
000360 45 40 ba bd cd 64 d6 3d 50 89 8d 3c c9 5c ef bd
       -0.0909429 0.10468445 0.01727739 -0.11687619
000370 e7 e6 f4 bd 20 c4 9c 3c 39 5c 18 bc f9 6f cc 3c
       -0.119581036 0.019136488 -0.009299331 0.024955736
000380 1b 33 88 bd 8d bf 1f bd b9 6e a2 bc 3c fc 9d bd
       -0.066503726 -0.039001036 -0.019828187 -0.077141255
000390 e9 57 ac 3d 41 bc f4 bd 5d 2f c3 3d 54 ef f1 bd
       0.08415205 -0.11949969 0.09530518 -0.11813226
0003a0 39 68 c8 bb a7 72 db 3d a0 1f e2 3d e1 03 28 bd
       -0.00611594 0.107152276 0.11041188 -0.041019324
0003b0 fc f7 9b bd 71 b7 dc 3d 5a 4c f5 bd 65 ab b4 bd
       -0.07615659 0.10777176 -0.119774535 -0.088217534
0003c0 bf e0 1e bd 72 44 76 bd 4b 46 e7 bd 6c 26 a6 3d
       -0.038788553 -0.06012387 -0.11292704 0.08112797
0003d0 d8 15 c6 3d 4c 12 b0 bc 4d 52 28 bd 70 59 c5 bd
       0.09672135 -0.0214931 -0.041094113 -0.096361995
0003e0 75 61 9c bd cc 79 bc 3c ed 4f 03 be 86 6c 0e 3d
       -0.07635776 0.023007296 -0.12823458 0.034771465
0003f0 2d 16 cc bd 33 7a bb 3c 70 e5 e6 bd f8 6c 06 be
       -0.09965167 0.022885418 -0.112742305 -0.13127506

fc3.bias f4 [32]
000000 d1 c7 f0 3e 95 c8 9e 3d ec 2b 1f 3f 8c a0 39 3c
       0.47027448 0.07753102 0.62176394 0.011329781
000010 04 a1 9f bd 4f d2 09 3f 70 30 c6 3d 95 08 1b 3f
       -0.07794383 0.5383653 0.096772075 0.6055997
000020 39 92 14 3f 75 9f 4e bc fc c3 46 bd ff 54 d1 bd
       0.5803562 -0.01261126 -0.04852675 -0.1022129
000030 42 2c 68 3d c9 0b 36 3f 5a d3 b2 3c 8c 33 e5 3e
       0.056682833 0.7111173 0.021829296 0.4476589
000040 42 4c 25 3f 28 01 f7 3e 83 72 d7 bd 79 72 f2 bb
       0.64569485 0.4824307 -0.10519888 -0.0073989
000050 d0 80 54 3d aa c6 3c 3d 48 23 a0 bd 4f a7 de 3b
       0.051880658 0.0460879 -0.07819229 0.006794847
000060 b6 8c 0b 3f e0 e4 e6 bd 10 91 81 3d 20 d2 23 3f
       0.5451158 -0.11274123 0.063264966 0.639925
000070 36 7b f6 3e 7e 6f 94 bd 95 11 0a 3d 99 0f 57 3d
       0.48140877 -0.07247828 0.033708174 0.05250511

fc4.weight f4 [1, 32]
000000 fa a9 c3 3e 2f 15 8d bb b3 99 ca 3e 3b ef 8c bd
       0.3821562 -0.004305504 0.39570388 -0.06881567
000010 5e cf 11 be 21 62 b2 3e 7f 26 fa bc 89 45 fe 3e
       -0.1423926 0.3484049 -0.030535934 0.49662426
000020 86 8e de 3e d5 79 22 bd 48 31 59 3d 94 6c 79 bd
       0.43468112 -0.03966697 0.053025514 -0.060894564
000030 2d 6d b2 bd 2c 56 b3 3e ca c3 21 3b 1c 53 d4 3e
       -0.0871223 0.3502668 0.002468335 0.41469657
000040 9d 30 d4 3e 2c ba db 3e fb ac 15 3b 7f 1c 06 be
       0.4144334 0.42915475 0.00228387 -0.13096808
000050 85 07 f6 bc ec c8 00 be f7 d4 9f bc 56 e4 13 bd
       -0.030032882 -0.12576646 -0.01951073 -0.03610643
000060 ee 6e a5 3e d2 4b 97 3d 73 d3 5d bd ed 20 c4 3e
       0.32311195 0.073875085 -0.05415673 0.3830637
000070 42 e6 cc 3e d0 f7 a6 3c 88 60 9a bc 5a b5 d7 bd
       0.40019423 0.020381838 -0.018844858 -0.10532637
