neural-network-model/pretrained_weights.pth (torch, 55031 bytes, 7 tensors)

fc1.weight f4 [128, 20]
0	0xbd2003b9	-0.03906605
1	0x3edda4e0	0.43289852
2	0xbdbcd2c7	-0.0921989
3	0xbdd82268	-0.105534375
4	0xbe61734e	-0.22016641
5	0xbec96305	-0.39333358
6	0x3da56c7c	0.080773324
7	0xbdda3b6c	-0.10655865
8	0x3ed01a36	0.40644997
9	0x3e1b066a	0.15139166
10	0x3eb65932	0.35614926
11	0xbecd65c2	-0.40116698
12	0x3e606220	0.21912432
13	0xbe5553cd	-0.20832749
14	0x3d80e905	0.06294445
15	0x3f001b0c	0.5004127
16	0xbe1000b1	-0.14062764
17	0xbf15fec5	-0.5859187
18	0xbe37143b	-0.17878811
19	0xbded07d7	-0.11573761
20	0x3e8f5333	0.27993163
21	0x3e0b2687	0.13588916
22	0xbd877601	-0.06614304
23	0x3dc861ab	0.09784254
24	0x3dd05d99	0.10174102
25	0x3e408af5	0.18803008
26	0x3e1ac35a	0.15113583
27	0x3cd12b7d	0.025533432
28	0xbed26051	-0.4108911
29	0x3d7a7543	0.061146986
30	0xbd6ed34d	-0.05830698
31	0xbe68b9a2	-0.22727063
32	0xbe471b44	-0.19443995
33	0xbe8e816d	-0.2783312
34	0x3f458fa6	0.77172315
35	0x3e84f80c	0.25970495
36	0xbdc7349b	-0.097268306
37	0x3ec4f431	0.38467553
38	0xbeb816d7	-0.35954925
39	0xbdc8587d	-0.09782503
40	0x3ee0fe8a	0.43944198
41	0x3da98f5a	0.08279295
42	0x3e5075b1	0.20357396
43	0x3e44f639	0.19234551
44	0x3f0db14a	0.55348647
45	0xbe234e73	-0.15947895
46	0xbec5c96f	-0.38630244
47	0xbd0a0a07	-0.03370097
48	0xbdf0a39a	-0.117499545
49	0xbe86bc5d	-0.26315585
50	0x3ddff29d	0.10934947
51	0x3e684d1a	0.22685662
52	0xbe8f1c95	-0.27951494
53	0xbe0bb27e	-0.13642308
54	0x3ed0e1b3	0.40797195
55	0xbe9a7a61	-0.30171493
56	0xbe6da4f0	-0.2320745
57	0xbdb95c86	-0.090508506
58	0x3cc6c300	0.024262905
59	0x3f286e7b	0.6579358
60	0x3d07246e	0.032993726
61	0x3e249310	0.16071725
62	0xbe3c2b02	-0.18375781
63	0x3e21d08b	0.15802209
64	0xbefb1969	-0.49042824
65	0xbefb927e	-0.49135202
66	0xbee865e6	-0.45390242
67	0xbed1d539	-0.40982988
68	0x3dd15bf6	0.10222618
69	0xbc578ab8	-0.013155632
70	0x3d5274e3	0.051381003
71	0xbe876507	-0.26444265
72	0xbe3bc67f	-0.18337439
73	0xbde3d35a	-0.111242965
74	0xbcb4ec68	-0.022085384
75	0xbf1c8a6d	-0.6114872
76	0x3da4de2b	0.08050188
77	0xbf0be7f5	-0.54650813
78	0x3e99cb07	0.3003771
79	0x3f1d5b32	0.6146728
80	0xbe147109	-0.14496244
81	0xbddfb8b3	-0.109239005
82	0x3eb3109b	0.34973606
83	0xbcd27942	-0.025692586
84	0x3ed404b6	0.41409844
85	0xbf1968c9	-0.59925514
86	0x3f01d00b	0.50708073
87	0xbe05033b	-0.12989514
88	0xbe2777c0	-0.16354275
89	0x3ba10332	0.004913711
90	0x3e04a696	0.12954172
91	0x3e651c35	0.22374041
92	0xbed2b6dd	-0.4115514
93	0xbefccfde	-0.4937734
94	0x3e46b9bb	0.19406788
95	0x3f06f157	0.52712005
96	0x3ecc3d7e	0.39890665
97	0xbea4b0ba	-0.32166082
98	0x3d810ab1	0.06300867
99	0xbef5fdab	-0.48045096
100	0x3eb3d836	0.35125893
101	0xbc8afa25	-0.016964981
102	0x3e2a4f1c	0.1663174
103	0x3e35d161	0.17755653
104	0x3f1cb5fb	0.6121518
105	0xbea51700	-0.3224411
106	0x3ee51c0c	0.4474796
107	0x3e84e2a9	0.25954178
108	0x3e6410f3	0.2227209
109	0xbd3d6782	-0.04624129
110	0x3dc829f4	0.09773627
111	0xbe431c54	-0.19053775
112	0xbd329c30	-0.043605983
113	0xbd84d02f	-0.0648502
114	0x3e9101ad	0.2832159
115	0x3e7d7926	0.24753246
116	0xbdb1771e	-0.08665298
117	0xbec25abc	-0.3795985
118	0x3d818c04	0.06325534
119	0xbf1a962f	-0.6038541
120	0x3e468a88	0.19388783
121	0x3d75dc6b	0.06002466
122	0x3e8fb11e	0.28064817
123	0x3d8abffb	0.067748986
124	0x3d8fbde9	0.07018644
125	0xbed1fd10	-0.41013384
126	0xbcc0e39a	-0.023546029
127	0x3e022679	0.12709989
128	0xbe9badb1	-0.30405954
129	0x3db7c206	0.08972554
130	0xbe052bcc	-0.13004988
131	0xbd00bb76	-0.031428777
132	0xbdfe2b7b	-0.12410637
133	0xbd6eedf0	-0.058332384
134	0x3e21331b	0.15742151
135	0x3ef107c9	0.47076252
136	0xbeee184a	-0.46502906
137	0xbf21d2d5	-0.6321233
138	0xbf3aa841	-0.72912985
139	0x3edc54f2	0.43033558
140	0x3ebd8e35	0.37022558
141	0x3e71ffc9	0.2363273
142	0xbd3f0f47	-0.04664543
143	0xbc80fde0	-0.015746057
144	0x3dc17fed	0.09448228
145	0xbe7301bf	-0.23731135
146	0xbdc77697	-0.09739416
147	0xbdabf7fd	-0.083969094
148	0xbdf0c09e	-0.11755489
149	0xbdb48086	-0.088135764
150	0xbdc890c8	-0.0979324
151	0x3d958739	0.07301182
152	0xbf0f7d2f	-0.5605039
153	0xbe3c815b	-0.1840872
154	0x3ede4020	0.43408298
155	0x3e039cb4	0.12852746
156	0xbefebd81	-0.49753955
157	0xbf78ea02	-0.9723207
158	0x3ef7a38c	0.48366964
159	0x3eb22c17	0.34799263
160	0x3d5cc6b6	0.053900443
161	0x3ce0c141	0.0274359
162	0x3dd38411	0.10327924
163	0x3e4e15cd	0.20125504
164	0x3e6378be	0.22214028
165	0xbc6e7274	-0.014553655
166	0xbe4e3576	-0.20137581
167	0xbec59e19	-0.3859718
168	0x3dc30615	0.095226444
169	0xbd09da91	-0.033655707
170	0xbdf2b3a6	-0.118506715
171	0xbecd799f	-0.40131852
172	0xbe8cc414	-0.27493346
173	0x3e89d4ff	0.26920316
174	0x3ec766ec	0.3894571
175	0x3d2523c6	0.04031732
176	0xbf4bb4b5	-0.7957261
177	0xbf3c9360	-0.73662376
178	0x3f0f547b	0.5598828
179	0x3ec65de5	0.3874351
180	0x3e45d971	0.19321229
181	0x3d918ee6	0.07107334
182	0xbc2c038d	-0.010498893
183	0x3d5de916	0.054177366
184	0xbc17a6c6	-0.0092560705
185	0xbede44ed	-0.4341196
186	0x3ee3e9cf	0.4451432
187	0xbe832ccf	-0.25620124
188	0xbdacaa16	-0.08430879
189	0x3da7d8f5	0.08195678
190	0x3cfbcdbc	0.03073775
191	0x3cb7dea5	0.022445032
192	0xbde60bbf	-0.11232709
193	0x3ec57cb0	0.38571692
194	0x3e4bc8a0	0.19900751
195	0x3ef20dce	0.47276157
196	0x3ec4925d	0.38392916
197	0xbf0bdeb5	-0.546367
198	0xbf0f827b	-0.5605847
199	0xbda7d08b	-0.08194073
200	0xbe5e58d1	-0.21713568
201	0xbdb57fc5	-0.08862261
202	0x3d043765	0.03227939
203	0x3e9d8e31	0.30772546
204	0x3f39585f	0.7240047
205	0x3c790732	0.015199469
206	0xbdbbc95c	-0.09169266
207	0x3c5347cf	0.0128955385
208	0xbe5fcac9	-0.218547
209	0xbe7c700c	-0.24652117
210	0x3e8a1c50	0.26974726
211	0x3e3a2e0e	0.18181631
212	0xbd0835fc	-0.03325461
213	0xbec5bc51	-0.38620237
214	0x3e908ac8	0.28230882
215	0xbf379874	-0.71717
216	0xbf27d1be	-0.65554416
217	0x3eb84083	0.3598672
218	0xbd24d63e	-0.04024338
219	0x3ed76ffc	0.42077625
220	0x3d275d28	0.040860325
221	0x3e70601e	0.23474166
222	0xbdd81d59	-0.105524726
223	0x3dd894ea	0.10575278
224	0xbcc1d163	-0.023659414
225	0xbe40aa3b	-0.18814938
226	0x3ea754d8	0.32681918
227	0xbe9952eb	-0.29946074
228	0x3d3552f8	0.04426858
229	0x3dbe7112	0.0929891
230	0xbdecaab6	-0.11555998
231	0xbe389d2c	-0.18028706
232	0x3bc8bb06	0.0061258106
233	0xbd8b59aa	-0.068042114
234	0x3c2b9f3b	0.010474975
235	0x3ec5284e	0.38507313
236	0x3e3aec11	0.18254115
237	0xbeb8028e	-0.3593945
238	0x3e5d2155	0.21594746
239	0xbec4d521	-0.38443854
240	0x3efd3593	0.49454936
241	0x3e3d19f8	0.18466938
242	0xbe9a3fc9	-0.3012679
243	0x3e0c39a5	0.13693865
244	0x3ee76aa9	0.45198563
245	0x3dc6ad62	0.09701039
246	0xbe360934	-0.17776948
247	0x3e0f52ca	0.13996425
248	0xbd22e7ef	-0.03977197
249	0x3d14b372	0.036303945
250	0xbe41cc18	-0.18925512
251	0xbebc74b9	-0.36807802
252	0x3e6b2e28	0.22966826
253	0xbe653fe9	-0.22387661
254	0x3f0d8102	0.55274975
255	0xbeea7e78	-0.45799613

fc1.bias f4 [128]
0	0x3ecc2e26	0.39878958
1	0x3f120217	0.5703444
2	0x3e636176	0.22205147
3	0x3e38bcfb	0.1804084
4	0x3f2d5ff5	0.67724544
5	0x3f0b105e	0.5432185
6	0x3e7ce0b2	0.2469509
7	0x3ea36056	0.31909436
8	0x3ef36347	0.4753668
9	0x3f08350a	0.5320593
10	0x3f1dc63a	0.61630595
11	0x3f455af3	0.770919
12	0x3f0b2560	0.54353905
13	0x3f3648e4	0.7120497
14	0x3f3822d6	0.71928155
15	0x3e9b796c	0.30366075
16	0x3e3178fb	0.17331307
17	0x3f187ac3	0.5956232
18	0x3efd87cf	0.49517676
19	0x3f132848	0.5748334
20	0x3f3adbdd	0.72991735
21	0x3e0935a0	0.13399363
22	0x3e7e63ba	0.2484273
23	0xbd8799a3	-0.06621101
24	0x3f2de7b0	0.6793165
25	0x3efc767a	0.4930914
26	0x3f1db6d0	0.61607075
27	0x3f3d3882	0.7391435
28	0x3f32bac1	0.69816214
29	0x3f2aa6ab	0.66660565
30	0x3ed3830c	0.41310918
31	0x3f2b95ae	0.6702527
32	0x3ee1040b	0.43948397
33	0x3f0df62e	0.55453765
34	0x3eec6b5a	0.46175653
35	0x3ea9572a	0.33074313
36	0x3f3801e7	0.718779
37	0x3f3bd8a8	0.73377466
38	0x3e82b7d2	0.2553087
39	0x3ca230be	0.019798633
40	0x3e840544	0.25785267
41	0x3f8f07ea	1.117429
42	0x3f4bb9ff	0.7958068
43	0x3f07d56f	0.5306005
44	0x3edad6b1	0.42741922
45	0x3e6754eb	0.22590987
46	0x3f1fd622	0.62436116
47	0x3f102247	0.56302303
48	0x3ebe566a	0.37175304
49	0x3ec9ec87	0.3943827
50	0x3ec05282	0.37562948
51	0x3ed2f83d	0.41205016
52	0x3f1a3d72	0.6025001
53	0x3f2ea7b6	0.68224657
54	0x3f0dc69c	0.5538118
55	0x3ec910b3	0.39270553
56	0x3f1487a4	0.5801947
57	0x3ee716f0	0.45134687
58	0x3eb28776	0.34868973
59	0x3ed16852	0.40899903
60	0x3f3cc57c	0.7373884
61	0x3f140dfa	0.57833827
62	0x3f3b0843	0.7305948
63	0x3eba8bd5	0.36434808
64	0x3ec816b1	0.39079812
65	0x3ec2089b	0.3789719
66	0x3f4db0db	0.80347985
67	0x3f0de9d0	0.55434895
68	0x3f3b69b4	0.73208165
69	0x3dc4a401	0.09601594
70	0x3ead9e60	0.33909893
71	0x3eaa18f9	0.33222178
72	0x3f130121	0.574236
73	0x3f2ed348	0.6829114
74	0x3ea236c2	0.31682402
75	0x3efcd92f	0.49384448
76	0x3ea0ee7c	0.3143195
77	0x3f22706b	0.63452786
78	0x3f3578cd	0.7088745
79	0x3ebc2129	0.3674405
80	0x3f2ee109	0.68312126
81	0x3ecf92cf	0.40541694
82	0x3f339053	0.70142096
83	0x3f30418b	0.6885001
84	0x3f28158b	0.6565787
85	0x3e705155	0.23468526
86	0x3f497dac	0.78707385
87	0x3ed70b6e	0.42000908
88	0x3f459afb	0.77189606
89	0x3ed7e2aa	0.42165118
90	0x3ea0c2b2	0.3139854
91	0x3f12bc71	0.5731879
92	0x3f0b371e	0.5438098
93	0x3f49ab6c	0.78777194
94	0x3f083bae	0.53216064
95	0x3edff08a	0.43738204
96	0x3eca221e	0.39479154
97	0x3f62d1f2	0.886016
98	0x3f1345ce	0.5752839
99	0x3f34852a	0.7051569
100	0x3f620a42	0.882969
101	0x3e731768	0.23739398
102	0x3eaf6999	0.34260252
103	0x3eda6c43	0.42660722
104	0x3e981c44	0.29709065
105	0x3f2fcd10	0.68672276
106	0x3e906b22	0.28206736
107	0x3f320bd4	0.695493
108	0x3ed94f26	0.42443198
109	0x3f5c5e03	0.8608095
110	0x3f142c6b	0.57880276
111	0x3f21fbbb	0.63274735
112	0x3ea7c3fb	0.3276671
113	0x3eb95d53	0.36204013
114	0x3f40ff32	0.753894
115	0x3ed353a6	0.41274756
116	0x3e59d7cc	0.21273726
117	0x3f0396cd	0.5140198
118	0x3f2a627d	0.6655653
119	0x3f0f7d88	0.5605092
120	0x3edd33ef	0.43203685
121	0x3f1cc92e	0.61244476
122	0x3f03244d	0.51227266
123	0x3e9bdb06	0.3044054
124	0x3ea0e040	0.3142109
125	0x3f243bee	0.64153945
126	0x3f1c7ee8	0.61131144
127	0x3f526dbf	0.8219871

fc2.weight f4 [64, 128]
0	0x3ea02e89	0.31285504
1	0x3e865f25	0.26244465
2	0x3e91f8ef	0.28510234
3	0x3ea0ae92	0.31383187
4	0x3efdae04	0.49546826
5	0x3e915cbe	0.2839107
6	0x3ed48ef3	0.41515312
7	0x3e910c40	0.28329659
8	0x3ef46615	0.47734132
9	0x3e05561d	0.13021131
10	0x3eb95dca	0.36204368
11	0x3e179f9c	0.1480698
12	0x3e8bd7ab	0.2731298
13	0x3ea6fe4e	0.32615894
14	0x3ef0e000	0.47045898
15	0x3eb956f3	0.3619915
16	0x3e6efdfe	0.23339078
17	0x3e9fa06f	0.3117709
18	0x3ea8cadb	0.32967266
19	0x3e52bc16	0.20579562
20	0x3efe66f1	0.49687913
21	0x3e87c47a	0.26517087
22	0x3e84f8fa	0.25971204
23	0x3dcc9172	0.09988679
24	0x3edf559b	0.4362
25	0x3e37798e	0.17917463
26	0x3e7d085c	0.2471022
27	0x3e9696f8	0.29412055
28	0x3eb312d3	0.349753
29	0x3ec94c84	0.3931619
30	0x3e54142d	0.20710821
31	0x3e82ed71	0.25571778
32	0x3e85246c	0.2600435
33	0x3ef3f1d7	0.47645447
34	0x3ea6b5a7	0.32560465
35	0x3ea19e28	0.31565976
36	0x3e9b9487	0.30386755
37	0x3ecfbc58	0.40573382
38	0x3e584406	0.21119699
39	0x3e6b96e6	0.23006782
40	0x3f0f5eaf	0.5600385
41	0x3f04d447	0.5188641
42	0x3e900b7c	0.28133762
43	0x3e8ca0ea	0.27466518
44	0x3e987bb8	0.2978189
45	0x3e6cb3db	0.23115484
46	0x3e3e2aff	0.18571089
47	0x3e262109	0.1622354
48	0x3e889e66	0.26683348
49	0x3ecf8b86	0.40536135
50	0x3ed41508	0.41422296
51	0x3e87cd6c	0.26523912
52	0x3e9bf3aa	0.30459338
53	0x3e86c7fd	0.26324454
54	0x3e9488be	0.29010576
55	0x3e8f6030	0.28003073
56	0x3dd50b86	0.104025885
57	0x3ed566f5	0.41680112
58	0x3d62ab17	0.055338945
59	0x3e62dd96	0.22154841
60	0x3e989f4b	0.2980903
61	0x3e4e98fb	0.20175545
62	0x3ee46f5e	0.44616216
63	0x3f04f8ae	0.51941955
64	0x3f0547c2	0.5206262
65	0x3e58ebfb	0.2118377
66	0x3ea1dcc4	0.31613743
67	0x3e83a580	0.25712204
68	0x3e64f614	0.22359496
69	0x3edd8007	0.4326174
70	0x3df7ed94	0.12105861
71	0x3e08762e	0.13326332
72	0x3e4a164d	0.1973507
73	0x3eba5de0	0.36399746
74	0x3e9fd310	0.31215715
75	0x3e80fb51	0.2519174
76	0x3edadf35	0.42748418
77	0x3e8eee87	0.27916357
78	0x3ec9dc58	0.3942592
79	0x3ebfd361	0.37465957
80	0x3ea26afe	0.31722254
81	0x3e4aaec2	0.19793227
82	0x3e6b958d	0.23006268
83	0x3ece4881	0.4028969
84	0x3ec15822	0.37762552
85	0x3e24d24a	0.16095844
86	0x3e88cedd	0.26720324
87	0x3e660576	0.2246302
88	0x3eb4e0ea	0.35327846
89	0x3e36569e	0.1780648
90	0x3e721d6b	0.23644035
91	0x3ee012d8	0.43764377
92	0x3e5cce97	0.21563183
93	0x3ea8e82e	0.3298964
94	0x3e033bef	0.12815832
95	0x3e9b9c00	0.30392456
96	0x3ec1ca3c	0.37849605
97	0x3eec7cff	0.46189114
98	0x3eb1110d	0.3458332
99	0x3ec07906	0.37592334
100	0x3eac6b6e	0.33675712
101	0x3ea8293e	0.32843965
102	0x3eb79ff2	0.35864216
103	0x3edf1ff8	0.43579078
104	0x3e833037	0.25622723
105	0x3e4c7a4a	0.19968525
106	0x3e8a53a0	0.27016926
107	0x3ef00413	0.46878108
108	0x3eb11618	0.3458717
109	0x3e936be1	0.28793243
110	0x3e879b93	0.2648588
111	0x3ec11c36	0.37716836
112	0x3ea365b0	0.3191352
113	0x3e8df529	0.27726105
114	0x3ee88fcb	0.45422205
115	0x3ec14efb	0.3775557
116	0x3ed29c1b	0.41134724
117	0x3eae72fa	0.34072095
118	0x3ecb8f2f	0.39757678
119	0x3e9c38dc	0.3051213
120	0x3e41058e	0.18849775
121	0x3e959078	0.29211783
122	0x3e96f60a	0.29484588
123	0x3e63f015	0.22259553
124	0x3e856014	0.26049864
125	0x3ee08177	0.43848774
126	0x3ef46e66	0.47740477
127	0x3eb113cd	0.3458542
128	0x3ce12b05	0.027486334
129	0x3d169d3f	0.036771055
130	0x3d383726	0.04497447
131	0x3cf1142c	0.029428564
132	0xbd72de77	-0.05929419
133	0x3d38c7e4	0.045112506
134	0x3c8cad70	0.017172545
135	0x3ccdbffb	0.025115957
136	0xbdcb0877	-0.09913724
137	0xbd2cf2fc	-0.042223915
138	0xbda3e9c4	-0.08003572
139	0xbcd93d6d	-0.026518548
140	0x3d891bbb	0.06694742
141	0xbd600811	-0.054695193
142	0x3c903287	0.017602218
143	0xbd61021f	-0.054933663
144	0xbda175bc	-0.07883784
145	0xbd133e49	-0.03594807
146	0x3d80908a	0.06277569
147	0x3d8f121e	0.069858775
148	0xbd2a6321	-0.041598443
149	0xbca06b06	-0.019582283
150	0x3d111037	0.035415854
151	0xbddb2f8d	-0.10702429
152	0xbd80d07a	-0.06289764
153	0x3c87f889	0.016598003
154	0xbc3778d9	-0.011198246
155	0xbd6fc5d7	-0.058538284
156	0x3d792361	0.060824756
157	0x3d95e6b1	0.073193915
158	0xbd485eac	-0.04891841
159	0x39b2fd8f	0.00034139722
160	0x3d216b31	0.039408866
161	0xbdb57df5	-0.08861915
162	0xbca38f66	-0.019965839
163	0xbdbad166	-0.09121971
164	0xbd0088d6	-0.031380497
165	0xbd985ee0	-0.07439971
166	0xbd83d0c8	-0.06436306
167	0xbdccbe13	-0.09997191
168	0xbbb627fd	-0.005558966
169	0x3ba39c64	0.0049930084
170	0x3c105d19	0.008811259
171	0x3cd5011c	0.026001506
172	0x3d6770f8	0.05650422
173	0xbdb26094	-0.08709827
174	0x3cf300d8	0.029663488
175	0xbca7d7f8	-0.020488724
176	0x3ce8d657	0.028422518
177	0xbd4e3f40	-0.05035329
178	0x3d0beeb8	0.034163207
179	0x3d557c92	0.052120753
180	0xbd654bea	-0.0559806
181	0x3c50541c	0.012715366
182	0xbd56900f	-0.05238348
183	0xbdb0f435	-0.08640329
184	0xbd5bf510	-0.053700507
185	0x3cdab91e	0.026699599
186	0x3d6b96f6	0.057517014
187	0xbd199a84	-0.037500873
188	0xbc2d7afb	-0.010588403
189	0x3d0b4a9f	0.03400671
190	0xbdafb552	-0.08579506
191	0x3ad858ff	0.0016506015
192	0xbd966c38	-0.0734486
193	0x3d113a8a	0.035456218
194	0x3a855f86	0.0010175563
195	0xbcb25be5	-0.021772334
196	0xbb1ef354	-0.0024253922
197	0x3d3a3332	0.04545898
198	0x3a2392e5	0.00062398455
199	0x3d151982	0.03640128
200	0xbc515e8e	-0.012778891
201	0x3c0edf31	0.008720205
202	0x3bf043d4	0.0073323045
203	0x3d51b8d4	0.051201656
204	0xbd11fe78	-0.03564307
205	0xbc37623a	-0.011192853
206	0x3cf47b81	0.029844048
207	0x3cd2ccdf	0.025732456
208	0x3d2329ae	0.03983467
209	0x3b0d4f5e	0.00215622
210	0xbd45b1d3	-0.04826529
211	0xbd201e8f	-0.039091643
212	0x3cec8fdc	0.028877191
213	0xbd99d62b	-0.075115524
214	0xbc90282f	-0.017597286
215	0xb89033da	-6.876113e-05
216	0xbb036761	-0.0020050632
217	0x3ccadf14	0.024764575
218	0xbc96ff6b	-0.01843234
219	0x3d33982c	0.043846294
220	0xbdad4c86	-0.08461861
221	0xbd6e8cc4	-0.058239713
222	0xbda2e94c	-0.07954654
223	0x3d41cb6c	0.04731314
224	0x3c11311c	0.008861806
225	0x3b2373c8	0.0024940837
226	0xbd11413c	-0.035462603
227	0xbdc5300b	-0.09628304
228	0x3cb5aa56	0.022175949
229	0x3d5a625a	0.05331645
230	0x3c0b4213	0.00849964
231	0xbceba05c	-0.028762989
232	0x3d437300	0.047717094
233	0xbc847740	-0.016170144
234	0xbcc8ac0f	-0.024496106
235	0xbda79c10	-0.081840634
236	0xbda6e1cf	-0.08148538
237	0xbd810b30	-0.06300962
238	0xbd77508c	-0.06037955
239	0xbc805acc	-0.015668295
240	0xbd13e0cf	-0.036103066
241	0x3c5e69e7	0.013575054
242	0x3c1ce98a	0.009577164
243	0xbd9383b0	-0.07202852
244	0xbc075974	-0.008261073
245	0xbdc3055b	-0.09522506
246	0x3d70ae56	0.05876001
247	0xbd51cf07	-0.051222827
248	0xbdad2118	-0.08453578
249	0xbce85c4b	-0.028364321
250	0xbd229a95	-0.039698202
251	0xbd9003c5	-0.07031969
252	0xbdc6c856	-0.0970618
253	0xbcb0a4ef	-0.021563021
254	0x3d224ecc	0.039625928
255	0x3cb90446	0.022585046

fc2.bias f4 [64]
0	0x3f2c785f	0.6737117
1	0xbd67b1b3	-0.05656595
2	0x3f30dbd5	0.6908544
3	0x3f094807	0.5362553
4	0x3f119488	0.56867266
5	0x3d989861	0.07450939
6	0xbdbb533a	-0.091467336
7	0x3d815f8c	0.06317052
8	0x3b0c18c0	0.0021377057
9	0x3f26dc6a	0.65180075
10	0x3f0da60a	0.5533148
11	0x3f38913b	0.72096604
12	0x3ed49950	0.41523218
13	0x3f18e714	0.597276
14	0x3f183f69	0.59471756
15	0x3f2149ca	0.6300322
16	0x3f21655e	0.630453
17	0x3f172be0	0.5905132
18	0x3c79394a	0.015211413
19	0x3f1e205d	0.6176813
20	0xbd9c7cc3	-0.07640984
21	0x3f1feec6	0.62473714
22	0x3f0cfc37	0.5507235
23	0x3f29d4a9	0.6634012
24	0x3f21955c	0.6311853
25	0xbce175b1	-0.02752194
26	0x3f1b5a63	0.60684794
27	0x3f320e67	0.69553226
28	0x381e6f58	3.7773832e-05
29	0x3f153f9a	0.58300173
30	0x3f222ed1	0.63352686
31	0x3f06c9f4	0.52651906
32	0x3f0f87a0	0.5606632
33	0x3e4b92ad	0.19880171
34	0x3f15db41	0.5853768
35	0xbdd3b77e	-0.10337733
36	0x3f2ca081	0.6743241
37	0x3f2169e9	0.6305223
38	0x3b138c51	0.0022514055
39	0xbd20a22f	-0.03921717
40	0x3f1eae33	0.61984557
41	0x3f27e43d	0.6558264
42	0x3f0d9435	0.5530427
43	0x3c00d23f	0.007862627
44	0x3f19f4d0	0.6013918
45	0x3f1cd5b3	0.6126358
46	0x3f250aca	0.6446959
47	0x3d7be58b	0.061498206
48	0x3f2d5231	0.6770354
49	0xbdb9315c	-0.09042618
50	0x3f2f0ab5	0.6837571
51	0x3f206ec8	0.6266904
52	0x3f04d61f	0.5188922
53	0x3f1d4db7	0.6144671
54	0x3f37e1d3	0.71828955
55	0xbd27013f	-0.040772673
56	0x3f0c8f4f	0.5490617
57	0x3f31511d	0.69264394
58	0x3f326cdc	0.69697356
59	0xbbc68457	-0.0060582566
60	0x3f00c2a9	0.5029703
61	0x3f31081e	0.6915301
62	0x3f221da4	0.6332648
63	0x3c9fbb74	0.019498564

fc3.weight f4 [32, 64]
0	0x3ed7d603	0.42155465
1	0xbd18544c	-0.037189767
2	0x3ea0ddb7	0.31419155
3	0x3ede3d41	0.43406108
4	0x3ed49366	0.41518706
5	0xbd4fc07f	-0.050720688
6	0xbdb96307	-0.09052091
7	0x3e051ecd	0.13000031
8	0xbb955f47	-0.004558477
9	0x3ed9c88a	0.42535812
10	0x3eae078c	0.33990133
11	0x3e79c8c9	0.24393
12	0x3e79fe18	0.24413335
13	0x3ed91139	0.42395952
14	0x3ea03ba7	0.3129551
15	0x3e8cbb6f	0.2748675
16	0x3ec6fa9f	0.38863084
17	0x3edf34f0	0.43595076
18	0x3cd0c62f	0.025485126
19	0x3e86ea24	0.2635051
20	0xbd2ca1f9	-0.042146657
21	0x3ed09eaa	0.4074605
22	0x3e5c3116	0.215031
23	0x3edccc52	0.43124634
24	0x3e8b8fdd	0.27258196
25	0x3ce5f235	0.028069595
26	0x3e8ea22f	0.2785811
27	0x3ed3892e	0.41315597
28	0x3c908c31	0.017644973
29	0x3eb8e406	0.36111468
30	0x3e7ddcc7	0.24791251
31	0x3e9f4ee1	0.31114867
32	0x3ee874c4	0.45401585
33	0x3db825db	0.08991595
34	0x3ebc162b	0.36735663
35	0xbd7a8e7b	-0.061171036
36	0x3eb5a1a5	0.35474887
37	0x3ee5a71b	0.44854054
38	0x3da2495c	0.079241484
39	0xbd939851	-0.072067864
40	0x3ecf129c	0.40443885
41	0x3edab279	0.4271429
42	0x3e91cc46	0.2847616
43	0x3decdc6b	0.11565479
44	0x3e77af6c	0.24188012
45	0x3ea45796	0.32098073
46	0x3edb9fe7	0.42895433
47	0x3d8904c7	0.06690364
48	0x3e6b89c8	0.23001778
49	0xbdd68f1a	-0.10476513
50	0x3eb6159a	0.35563356
51	0x3ea16c16	0.31527776
52	0x3e8bf21e	0.27333158
53	0x3e97cfa6	0.2965061
54	0x3eb6dd05	0.357155
55	0xbd6f6132	-0.058442302
56	0x3eb414c8	0.35172105
57	0x3ee82b1b	0.45345387
58	0x3e9be646	0.30449122
59	0x3df3ff74	0.11913958
60	0x3e5c89ec	0.21536988
61	0x3ee5298f	0.4475827
62	0x3eb03f74	0.3442341
63	0xbd5aad6e	-0.05338805
64	0xbd9fa222	-0.07794596
65	0xbcc4974b	-0.023997923
66	0xbb655ab5	-0.0034996693
67	0xbd081800	-0.033226013
68	0xbdd59196	-0.10428159
69	0xbd5127f5	-0.051063497
70	0xbdcb179b	-0.09916612
71	0x3dd2ead9	0.102987
72	0x3d954e62	0.07290341
73	0x3d495e81	0.04916239
74	0x3d691b55	0.05691083
75	0x3d6cab3e	0.057780497
76	0x3b7ee411	0.0038893262
77	0xbdf3ec62	-0.11910321
78	0xbdc9da46	-0.098560855
79	0xbc2e9b40	-0.010657132
80	0x3aafcde5	0.0013412802
81	0xbdc4d307	-0.09610563
82	0xbd21e39d	-0.03952371
83	0x3c572d23	0.01313332
84	0x3ceb4ef2	0.028724167
85	0x3d89aca5	0.067223825
86	0x3d842d09	0.06453902
87	0xbe0c776b	-0.1371743
88	0x3d8c89e7	0.0686224
89	0x3a9d7591	0.0012013187
90	0xbdf022f4	-0.11725417
91	0xbd8f2e11	-0.06991208
92	0x3db8a212	0.090152875
93	0x3d2fd12a	0.042924084
94	0xbc5ac0e2	-0.013351651
95	0xb8e40af4	-0.000108739274
96	0x3ba60a7c	0.005067168
97	0x3d3c59bf	0.045984026
98	0xbdda8e76	-0.106717035
99	0xbd82b57b	-0.06382271
100	0xbbe9e134	-0.007137442
101	0xbe0aeb62	-0.13566354
102	0xbe0c015f	-0.13672398
103	0xbd93cc98	-0.072167575
104	0xbde72ffe	-0.11288451
105	0xbd229437	-0.03969213
106	0xbdf171cd	-0.11789284
107	0x3da751b3	0.0816988
108	0xbdffe905	-0.12495617
109	0xbdfe8889	-0.12428386
110	0xbdc3e4b0	-0.09565103
111	0xbdd85c9a	-0.10564537
112	0xbce8d099	-0.02841978
113	0x3de1298f	0.10994255
114	0x3dbbcd92	0.09170069
115	0x3d90f0f4	0.07077208
116	0x3ccb1a97	0.024792952
117	0xbd7a7859	-0.06114993
118	0xbd45e42d	-0.04831331
119	0xbddd9ad4	-0.10820547
120	0xbce1e219	-0.027573632
121	0x3dc7fbe6	0.09764843
122	0xbe002ed5	-0.12517865
123	0x3db18288	0.08667475
124	0x3c7b8fa6	0.015354073
125	0x3c733909	0.014845141
126	0xbe039139	-0.12848367
127	0xbd8dc78c	-0.06922826
128	0x3ee87cf4	0.45407832
129	0xbbcb839c	-0.0062107574
130	0x3ec04fb3	0.37560806
131	0x3ecf04e9	0.40433434
132	0x3e733931	0.23752286
133	0xbd2e2084	-0.042511478
134	0xbc829096	-0.015938085
135	0xbddec4c6	-0.10877375
136	0xbd343bd5	-0.044002373
137	0x3ec3c49a	0.38235933
138	0x3eb6d22e	0.3570723
139	0x3ebe7b75	0.37203565
140	0x3e292a93	0.16520147
141	0x3ed20c84	0.41025174
142	0x3ebe06dd	0.3711461
143	0x3ebe8851	0.37213376
144	0x3ec1b073	0.37829933
145	0x3e58c8e2	0.2117038
146	0xbd5af3d1	-0.053455178
147	0x3ee08d55	0.43857828
148	0xbd338802	-0.04383088
149	0x3ec27f0a	0.37987548
150	0x3e8fcebe	0.2808742
151	0x3eb09336	0.34487313
152	0x3e827cd3	0.25485858
153	0x3dee7aa4	0.116444856
154	0x3ea0f0b5	0.31433645
155	0x3e8c4f08	0.27404046
156	0xbd84583b	-0.06462141
157	0x3e7a8773	0.24465732
158	0x3ecaccba	0.3960932
159	0x3e8b96b9	0.2726343
160	0x3ec4a963	0.38410482
161	0x3c2d7d8d	0.010589016
162	0x3ee82a76	0.45344895
163	0x3b75d7a9	0.0037512577
164	0x3ed77ef0	0.42089033
165	0x3e9785e4	0.29594338
166	0x3d3f8947	0.046761777
167	0xbcd316e8	-0.025767758
168	0x3ed1dcf3	0.40988883
169	0x3eb226a8	0.34795117
170	0x3ec711d0	0.38880777
171	0x3d4c215d	0.049836505
172	0x3e865039	0.2623308
173	0x3e89d58c	0.26920736
174	0x3e8afbf3	0.27145347
175	0xbda45456	-0.08023898
176	0x3eb0061a	0.34379655
177	0x3e02072b	0.12698047
178	0x3e866010	0.26245165
179	0x3e9b9d0b	0.30393252
180	0x3e49a921	0.19693424
181	0x3e115a3c	0.14194578
182	0x3e9e7f4f	0.30956504
183	0xbda87995	-0.08226315
184	0x3ebcde92	0.36888558
185	0x3e931e3a	0.28734
186	0x3ecd8ee6	0.40148085
187	0x3da6443c	0.081184834
188	0x3e492a72	0.19645098
189	0x3ea5421c	0.32277
190	0x3ec63698	0.38713527
191	0x3d155523	0.036458146
192	0x3d32e26c	0.043672964
193	0xbd061761	-0.03273714
194	0x3dc9db2b	0.09856256
195	0xbdb098ba	-0.0862288
196	0xbd015b38	-0.031581134
197	0x3dc1d574	0.09464541
198	0xbd909fdb	-0.0706174
199	0xbd7b59bc	-0.061364874
200	0x3de44acc	0.11147079
201	0xbcf04da2	-0.029333893
202	0xbdec6622	-0.11542918
203	0x3dbbab0d	0.09163485
204	0x3d65cf82	0.056106098
205	0x3c8afb44	0.016965516
206	0xbd610da8	-0.054944664
207	0xba560f22	-0.0008165707
208	0x3d52356c	0.05132048
209	0x3b2122c9	0.0024587384
210	0xbd9ca5d7	-0.07648819
211	0xbdf5ad7d	-0.11995981
212	0x3d21be48	0.039488107
213	0x3d8a20e4	0.06744555
214	0xbd989704	-0.07450679
215	0xbd390440	-0.04517007
216	0xbdba4045	-0.0909429
217	0x3dd664cd	0.10468445
218	0x3c8d8950	0.01727739
219	0xbdef5cc9	-0.11687619
220	0xbdf4e6e7	-0.119581036
221	0x3c9cc420	0.019136488
222	0xbc185c39	-0.009299331
223	0x3ccc6ff9	0.024955736
224	0xbd88331b	-0.066503726
225	0xbd1fbf8d	-0.039001036
226	0xbca26eb9	-0.019828187
227	0xbd9dfc3c	-0.077141255
228	0x3dac57e9	0.08415205
229	0xbdf4bc41	-0.11949969
230	0x3dc32f5d	0.09530518
231	0xbdf1ef54	-0.11813226
232	0xbbc86839	-0.00611594
233	0x3ddb72a7	0.107152276
234	0x3de21fa0	0.11041188
235	0xbd2803e1	-0.041019324
236	0xbd9bf7fc	-0.07615659
237	0x3ddcb771	0.10777176
238	0xbdf54c5a	-0.119774535
239	0xbdb4ab65	-0.088217534
240	0xbd1ee0bf	-0.038788553
241	0xbd764472	-0.06012387
242	0xbde7464b	-0.11292704
243	0x3da6266c	0.08112797
244	0x3dc615d8	0.09672135
245	0xbcb0124c	-0.0214931
246	0xbd28524d	-0.041094113
247	0xbdc55970	-0.096361995
248	0xbd9c6175	-0.07635776
249	0x3cbc79cc	0.023007296
250	0xbe034fed	-0.12823458
251	0x3d0e6c86	0.034771465
252	0xbdcc162d	-0.09965167
253	0x3cbb7a33	0.022885418
254	0xbde6e570	-0.112742305
255	0xbe066cf8	-0.13127506

fc3.bias f4 [32]
0	0x3ef61200	0.48060608
1	0x3d9ec895	0.07753102
2	0x3f21d01a	0.6320816
3	0x3c39a08c	0.011329781
4	0xbd9fa104	-0.07794383
5	0x3f0c7a1d	0.5487383
6	0x3dc63070	0.096772075
7	0x3f1da78d	0.6158379
8	0x3f1733f5	0.59063655
9	0xbc4e9f75	-0.01261126
10	0xbd46c3fc	-0.04852675
11	0xbdd154ff	-0.1022129
12	0x3d682c42	0.056682833
13	0x3f38b37d	0.7214888
14	0x3cb2d35a	0.021829296
15	0x3eea7994	0.45795882
16	0x3f27ef3a	0.65599406
17	0x3efc4587	0.49271795
18	0xbdd77283	-0.10519888
19	0xbbf27279	-0.0073989
20	0x3d5480d0	0.051880658
21	0x3d3cc6aa	0.0460879
22	0xbda02348	-0.07819229
23	0x3bdea74f	0.006794847
24	0x3f0e370b	0.5555274
25	0xbde6e4e0	-0.11274123
26	0x3d819110	0.063264966
27	0x3f267720	0.6502552
28	0x3efbc301	0.49172214
29	0xbd946f7e	-0.07247828
30	0x3d0a1195	0.033708174
31	0x3d570f99	0.05250511

fc4.weight f4 [1, 32]
0	0x3ec2b762	0.38030535
1	0xbb8d152f	-0.004305504
2	0x3ec9aa07	0.39387533
3	0xbd8cef3b	-0.06881567
4	0xbe11cf5e	-0.1423926
5	0x3eb16e68	0.34654546
6	0xbcfa267f	-0.030535934
7	0x3efd52d9	0.4947727
8	0x3edd9e48	0.43284822
9	0xbd2279d5	-0.03966697
10	0x3d593148	0.053025514
11	0xbd796c94	-0.060894564
12	0xbdb26d2d	-0.0871223
13	0x3eb268c6	0.3484556
14	0x3b21c3ca	0.002468335
15	0x3ed36596	0.4128844
16	0x3ed33b39	0.4125612
17	0x3edace45	0.42735496
18	0x3b15acfb	0.00228387
19	0xbe061c7f	-0.13096808
20	0xbcf60785	-0.030032882
21	0xbe00c8ec	-0.12576646
22	0xbc9fd4f7	-0.01951073
23	0xbd13e456	-0.03610643
24	0x3ea4821e	0.32130522
25	0x3d974bd2	0.073875085
26	0xbd5dd373	-0.05415673
27	0x3ec332f7	0.3812482
28	0x3ecbf4f6	0.39835328
29	0x3ca6f7d0	0.020381838
30	0xbc9a6088	-0.018844858
31	0xbdd7b55a	-0.10532637
